quantum_processors/quantum_weights.pt (torch_old, 9458 bytes, 5 tensors)

q_params f4 [60]
00000000: 99d2 913c 7c2b f5bb 2e33 aa3c d214 5cbb
00000010: 7d38 07b9 cd07 dbbb 82b3 6ebc 74eb 753c
00000020: a1a7 383c 12c1 b6bb d2e6 02bc 7acf 0c3c
00000030: d7d8 b03c 6d2f 153c 625a e33a 6bcc 15bd
00000040: a19a cbbb caa8 b43b 49bc 36bc eecc df3b
00000050: 78b8 563b 4547 51bb b52e 863b f28f 723d
00000060: ae15 2f3c a143 e23b f88c b73b cf2f feba
00000070: 0b8f a63c 822d 363c 2d6e 25bc b7a9 82bc
00000080: 1e8a 68bc 9ca5 a5bb bb17 9fb9 4982 07bc
00000090: 2161 aabb 37d0 513b ae9b 09bb 3ed5 a63c
000000a0: 8bd4 64bc a1f9 a93b ef42 14bb 621b a73a
000000b0: c3c3 f53c fb71 403c b449 4f3b ac9f 07bd
000000c0: d9be c13a 12d9 d03a 920f 6bbb 7d43 a93c
000000d0: 830e 133c 8a31 9a3b b0b1 d5bb bdb9 1f3b
000000e0: 4103 ce3b 8ebb ac3b dc0e 283c b052 6f3b
0.017800616 -0.0074819904 0.020776358 -0.0033581746 -0.00012895647 -0.0066842795 -0.014569165 0.01500975
0.011270435 -0.005577215 -0.007989602 0.008594388 0.021587772 0.0091055455 0.0017345662 -0.0365719
-0.0062135016 0.0055132853 -0.011153289 0.0068298494 0.003276376 -0.003193335 0.0040949234 0.05921931
0.010686321 0.0069050347 0.0056015216 -0.001939291 0.02033188 0.011119248 -0.010097069 -0.015950067
-0.014193086 -0.0050551426 -0.00030344524 -0.0082708085 -0.005199567 0.0032014975 -0.0020997333 0.020365354
-0.01396669 0.005187229 -0.0022622903 0.001274925 0.030000573 0.011745925 0.0031629624 -0.03311126
0.0014781608 0.0015933833 -0.0035867435 0.020662064 0.008975628 0.0047056125 -0.006521426 0.0024372183
0.006287009 0.0052713817 0.010257449 0.0036517791

pre_net.weight f4 [4, 512]
00000000: b06d 8d3b 6acd 053d 1b7d 293d db78 143d
00000010: 8119 643b 7fa7 ee3b f45d 3ebd d8cd 163d
00000020: 5438 a03c f904 303d 08a5 29bd 1b4b 183d
00000030: 2d32 1abd fddb 85bb f3ff 3a3d dbad 7f3b
00000040: 881d 683c f04c bfbc adcf 383d 37b6 9f3c
00000050: beb8 1d3d 0af8 4d3d 96d1 8fbc 2f8a f1bc
00000060: b48f d6bb 08d7 11bc 27e1 3d3d 4bb6 42ba
00000070: ed34 d0bc 416d 373c 06ab 2e3d 1ed1 223d
00000080: 59d9 d8bb 370d cdbc 6e8d 1ebd 0468 1d3d
00000090: 8719 383d 0b69 293d 6c60 a43c 0698 2d3d
000000a0: 68eb 21bd 3d53 51bc 1098 a6b9 6035 893c
000000b0: cb79 413d 739a 033d 275a 2d3d 54c8 b53c
000000c0: 652d 09bd 04de 343d 43ff d8ba d95e 8fbc
000000d0: f743 aabb b157 2c3d d2d7 673c 10be 5ebc
000000e0: 1e38 a13c 6c82 1f3d 6065 233d a7d3 053c
000000f0: fbd7 c2bb 0305 163d 5e99 2a3d 0cb7 c73c
00000100: 5917 293d 3fb6 d7bc a9ce 2abd 9979 b13b
00000110: b507 183d 2780 b33c 48a5 223d 8945 223c
00000120: 25fd 8ebc 2f86 263c b012 303d 8845 0bbd
00000130: d409 cf3c ea40 82bb cd84 a03c 674d 8a3b
00000140: b8f3 31bc 4763 42bd 635f 473d 5d11 e33b
00000150: 22db 343c 36c0 a73c f9c7 c9bc 369f 823c
00000160: 4444 babc bc29 973b 1cdf 39bc d6c5 a7bc
00000170: d77b c13c 8a79 543c 5de3 43bc 279c 86bb
00000180: ef78 3b3c b57f ec3c 9989 023d 137e eb3c
00000190: eef2 b73c c578 d73c 6139 32bd ed33 fa3b
000001a0: 15fc ab3c 394c b5bc 2ae8 f3bc ae19 913c
000001b0: 477f ec3c fc13 c13c c234 b3bc 69cf f33c
000001c0: ae4f 8b3a 3a7b bc3a bc7a 863c 3156 253d
000001d0: 68a1 1abd 21e0 103d 3a70 d73c 8222 d03c
000001e0: 6ac1 0bba a8a1 523d cc3d b33c 6345 76bc
000001f0: 82d6 fa3c 47d2 3d3c ac54 d93b 427f 463d
00000200: 6f80 2abc 797c e03c 4f0e af3c 037b 51bc
00000210: b59c dd3c 5e36 01bd b2af a03c a5e9 8bbc
00000220: 564d 38bd 88bc cf3c d6b1 ddbc 88f3 3cbd
00000230: 8436 ce3c e813 fabb ae8d 77ba 271a 5abb
00000240: aa77 d43b fe50 91bb 7b72 dbbc 783a 203d
00000250: b04e 00bd c4b1 a13c c7ad 2b3b b434 c7b8
00000260: a6bb 3d3d c630 973c 40d0 163d a011 e7bb
00000270: 43d6 1f3d 57a3 e13c a6cd 06bd 0d68 273d
00000280: fa2e efba 0141 04bd 20e4 a3bc 32ae 11bc
00000290: 0328 a43c 4091 c3bb 6478 793c 97ee e7bc
000002a0: fd59 ed3c 1be7 b23c b274 b93b 981c fabc
000002b0: 48c8 b73c ac04 c4bb 5cbc ca3c 20cd 9c3c
000002c0: 8bc3 013d aca3 dfbc 3879 053d fcd4 5abc
000002d0: d4ed e23c 57f5 093c a57e e33c 5309 2f3d
000002e0: 790c 203d 6959 25bd e848 753c 345f 88bc
000002f0: 7bb0 30bd b8bb ae3c d596 efbb 1c3d c9bc
00000300: 823f 16bc aa6d f0bc a5e7 263d ff1f 3c3c
00000310: ecca 473d 7fa7 193d c7a0 b2bb 5973 2f3d
00000320: 9927 3a3d cf14 0abc 06cb b4bb dc06 13bc
00000330: 0aa6 e23c 923c 953c 9331 6f3c ffbf ddbc
00000340: 4a7d 383c b77c e4bc 4e65 d43c 92f7 fd3c
00000350: c597 dc3c c946 133d 50c3 4cbd 91cb 27bd
00000360: b59d e33c 6662 e4bc 41f8 e3bb bfbb bbbc
00000370: 93ce 9d3c 87a8 1d3c 7d5a 26bd 3fcf eebc
00000380: 2090 cf3b d1be a7ba b342 103d 12c1 d73c
00000390: b41e 043d e75b ef3c 8966 1e3d f234 cfbb
000003a0: 0f19 e4bc 6bbe 0c3d e308 ac3c efd0 e9bc
000003b0: 7933 8abb afd2 03bd ab62 a3bb 0b57 0c3d
000003c0: cafe bebc 0911 a1bc c489 fd3c ae73 f53c
000003d0: 1f08 b93c 5766 04bc 136d 093d 805b 4bbc
000003e0: 1f12 893a 0ad7 6f3d 937f c93c 21b3 c43c
000003f0: 470f 033a 8f6c 9ebc c404 4abc c99a 9d3c
0.0043160543 0.0326666 0.041379075 0.03624807 0.003480524 0.0072831507 -0.04647632 0.0368174
0.01955811 0.042973492 -0.04141715 0.037181 -0.037645508 -0.0040850625 0.04565425 0.0039013538
0.014167197 -0.023352116 0.04511993 0.019496066 0.038506262 0.050285377 -0.017555993 -0.029484836
-0.0065478925 -0.008901365 0.0463573 -0.00074276765 -0.025415862 0.011195482 0.04264357 0.03975021
-0.0066177067 -0.025030715 -0.038709097 0.038429275 0.04494622 0.041359942 0.020065509 0.04238131
-0.03953114 -0.012776193 -0.00031775283 0.016749084 0.04723529 0.032129716 0.042322304 0.02219025
-0.033490557 0.044157043 -0.0016555566 -0.017501282 -0.0051960903 0.042075817 0.014150577 -0.013595119
0.01968008 0.03894274 0.0398916 0.008168138 -0.005946157 0.036625873 0.04165017 0.024379276
0.04128203 -0.026332019 -0.041700993 0.005416107 0.037116725 0.021911694 0.039708406 0.009904274
-0.017454693 0.010163828 0.04298657 -0.034001857 0.025273241 -0.0039750235 0.019594574 0.004220653
-0.01086133 -0.04745796 0.048674952 0.00692956 0.011038573 0.020477396 -0.024631487 0.015945058
-0.02273763 0.0046131294 -0.011344697 -0.020480078 0.023618622 0.01296843 -0.011956063 -0.0041079703
0.011442407 0.02886949 0.031869505 0.02874664 0.022454705 0.026302705 -0.043511752 0.0076355846
0.020994226 -0.022131072 -0.02977379 0.01771244 0.028869284 0.0235691 -0.021875743 0.029761987
0.0010628605 0.0014379986 0.016415946 0.0403654 -0.037751585 0.035369996 0.026298631 0.02540708
-0.000533125 0.0514237 0.021880053 -0.0150311915 0.030619863 0.011585779 0.006632408 0.048461206
-0.0104065975 0.027403103 0.021369128 -0.012785676 0.027052263 -0.03154599 0.019615028 -0.017079184
-0.04499563 0.025358453 -0.027062338 -0.046130687 0.02517248 -0.0076317675 -0.0009443414 -0.0033279748
0.0064839916 -0.004434704 -0.026787987 0.03911826 -0.031325042 0.019738086 0.0026196109 -9.498876e-05
0.046321534 0.018455874 0.036819696 -0.0070516616 0.039022695 0.027543707 -0.032910965 0.040870715
-0.0018248253 -0.032288555 -0.02000624 -0.008891629 0.02003861 -0.005968243 0.015226457 -0.02831201
0.028973574 0.021838715 0.005659663 -0.030531213 0.022434369 -0.0059820022 0.02474802 0.01914078
0.031680625 -0.027299725 0.032586306 -0.0133564435 0.027701296 0.00842031 0.02777035 0.0427335
0.039074395 -0.04036847 0.0149709955 -0.016646959 -0.043137055 0.021329746 -0.0073116818 -0.024565272
-0.009170415 -0.029349167 0.040748257 0.011482238 0.048777506 0.037513252 -0.005451295 0.042834613
0.04544792 -0.008427813 -0.0055173663 -0.008973803 0.027667064 0.018217359 0.014599222 -0.02706909
0.01126034 -0.0278915 0.025927212 0.03100184 0.026927838 0.035956178 -0.049990952 -0.04096562
0.027785162 -0.027878951 -0.0069570844 -0.022916673 0.019263541 0.0096227 -0.04061364 -0.029151557
0.0063343197 -0.0012797957 0.03521986 0.02633718 0.032255843 0.029218627 0.038672004 -0.0063234502
-0.02784398 0.034361284 0.021000331 -0.02854201 -0.004217562 -0.032183345 -0.0049861274 0.0342627
-0.023314852 -0.019661443 0.03094948 0.029962387 0.02258688 -0.00808104 0.033551287 -0.012411952
0.0010457671 0.058554687 0.024596965 0.024011197 0.000499953 -0.019338874 -0.012330238 0.019238846

pre_net.bias f4 [4]
00000000: f6db 423d 82b4 2a3d e99d ec3c 724a c83c
0.047573052 0.041676052 0.028883891 0.02444956

post_net.weight f4 [2, 4]
00000000: a774 72be 0d35 61be c859 d7be c704 7b3e
00000010: 781f e23e 7d47 673e a68b f23e e69a 03be
-0.23677312 -0.21992894 -0.42060685 0.24513541 0.44164634 0.22585864 0.47372168 -0.12852058

post_net.bias f4 [2]
00000000: d415 c8bd ad90 723e
-0.097697884 0.23688002
